…
 1, 'manual_seed': 0, 'dist_url': 'tcp://224.66.41.62:23456', 'dist_backend': 'gloo', 'train_size': 0.2, 'val_size': 0.2, 'cache_dir': './gsteg/cr_caches/', 'name': 'test', 's_class': 16, 'o_class': 38, 'v_class': 33, 'accum_grad': 1, 'distributed': False, 'cache': './gsteg/cr_caches/test/'}
2020-07-02 16:19:12,179:loading pretrained-weights from ./gsteg/rgb_i3d_pretrained.pt
2020-07-02 16:19:12,255:=> no checkpoint found, starting from scratch: './gsteg/cr_caches/GSTEG/model.pth.tar'
2020-07-02 16:19:12,257:AsyncTFBase(
2020-07-02 16:19:12,257:  (s): Sequential(
2020-07-02 16:19:12,257:    (0): Linear(in_features=1024, out_features=1000, bias=True)
2020-07-02 16:19:12,257:    (1): ReLU()
2020-07-02 16:19:12,257:    (2): Dropout(p=0.3, inplace=False)
2020-07-02 16:19:12,257:    (3): Linear(in_features=1000, out_features=1000, bias=True)
2020-07-02 16:19:12,257:    (4): ReLU()
2020-07-02 16:19:12,257:    (5): Dropout(p=0.3, inplace=False)
2020-07-02 16:19:12,257:    (6): Linear(in_features=1000, out_features=16, bias=True)
2020-07-02 16:19:12,258:  )
2020-07-02 16:19:12,258:  (o): Linear(in_features=1024, out_features=38, bias=True)
2020-07-02 16:19:12,258:  (v): Linear(in_features=1024, out_features=33, bias=True)
2020-07-02 16:19:12,258:  (so_a): BasicModule(
2020-07-02 16:19:12,258:    (layers): Sequential(
2020-07-02 16:19:12,258:      (0): Linear(in_features=1024, out_features=1000, bias=True)
2020-07-02 16:19:12,258:      (1): ReLU()
2020-07-02 16:19:12,258:      (2): Dropout(p=0.3, inplace=False)
2020-07-02 16:19:12,258:      (3): Linear(in_features=1000, out_features=80, bias=True)
2020-07-02 16:19:12,258:    )
2020-07-02 16:19:12,258:  )
2020-07-02 16:19:12,258:  (so_b): BasicModule(
2020-07-02 16:19:12,258:    (layers): Sequential(
2020-07-02 16:19:12,258:      (0): Linear(in_features=1024, out_features=1000, bias=True)
2020-07-02 16:19:12,258:      (1): ReLU()
2020-07-02 16:19:12,258:      (2): Dropout(p=0.3, inplace=False)
2020-07-02 16:19:12,258:      (3): Linear(in_features=1000, out_features=190, bias=True)
2020-07-02 16:19:12,258:    )
2020-07-02 16:19:12,258:  )
2020-07-02 16:19:12,258:  (ov_a): BasicModule(
2020-07-02 16:19:12,258:    (layers): Sequential(
2020-07-02 16:19:12,258:      (0): Linear(in_features=1024, out_features=1000, bias=True)
2020-07-02 16:19:12,258:      (1): ReLU()
2020-07-02 16:19:12,258:      (2): Dropout(p=0.3, inplace=False)
2020-07-02 16:19:12,259:      (3): Linear(in_features=1000, out_features=190, bias=True)
2020-07-02 16:19:12,259:    )
2020-07-02 16:19:12,259:  )
2020-07-02 16:19:12,259:  (ov_b): BasicModule(
2020-07-02 16:19:12,259:    (layers): Sequential(
2020-07-02 16:19:12,259:      (0): Linear(in_features=1024, out_features=1000, bias=True)
2020-07-02 16:19:12,259:      (1): ReLU()
2020-07-02 16:19:12,259:      (2): Dropout(p=0.3, inplace=False)
2020-07-02 16:19:12,259:      (3): Linear(in_features=1000, out_features=165, bias=True)
2020-07-02 16:19:12,259:    )
2020-07-02 16:19:12,259:  )
2020-07-02 16:19:12,259:  (vs_a): BasicModule(
2020-07-02 16:19:12,259:    (layers): Sequential(
2020-07-02 16:19:12,259:      (0): Linear(in_features=1024, out_features=1000, bias=True)
2020-07-02 16:19:12,259:      (1): ReLU()
2020-07-02 16:19:12,259:      (2): Dropout(p=0.3, inplace=False)
2020-07-02 16:19:12,259:      (3): Linear(in_features=1000, out_features=165, bias=True)
2020-07-02 16:19:12,259:    )
2020-07-02 16:19:12,259:  )
2020-07-02 16:19:12,259:  (vs_b): BasicModule(
2020-07-02 16:19:12,259:    (layers): Sequential(
2020-07-02 16:19:12,259:      (0): Linear(in_features=1024, out_features=1000, bias=True)
2020-07-02 16:19:12,259:      (1): ReLU()
2020-07-02 16:19:12,259:      (2): Dropout(p=0.3, inplace=False)
2020-07-02 16:19:12,260:      (3): Linear(in_features=1000, out_features=80, bias=True)
2020-07-02 16:19:12,260:    )
2020-07-02 16:19:12,260:  )
2020-07-02 16:19:12,260:  (ss_a): BasicModule(
2020-07-02 16:19:12,260:    (layers): Sequential(
2020-07-02 16:19:12,260:      (0): Linear(in_features=1024, out_features=1000, bias=True)
2020-07-02 16:19:12,260:      (1): ReLU()
2020-07-02 16:19:12,260:      (2): Dropout(p=0.3, inplace=False)
2020-07-02 16:19:12,260:      (3): Linear(in_features=1000, out_features=80, bias=True)
2020-07-02 16:19:12,260:    )
2020-07-02 16:19:12,260:  )
2020-07-02 16:19:12,260:  (ss_b): BasicModule(
2020-07-02 16:19:12,260:    (layers): Sequential(
2020-07-02 16:19:12,260:      (0): Linear(in_features=1024, out_features=1000, bias=True)
2020-07-02 16:19:12,260:      (1): ReLU()
2020-07-02 16:19:12,260:      (2): Dropout(p=0.3, inplace=False)
2020-07-02 16:19:12,260:      (3): Linear(in_features=1000, out_features=80, bias=True)
2020-07-02 16:19:12,260:    )
2020-07-02 16:19:12,260:  )
2020-07-02 16:19:12,260:  (oo_a): BasicModule(
2020-07-02 16:19:12,260:    (layers): Sequential(
2020-07-02 16:19:12,260:      (0): Linear(in_features=1024, out_features=1000, bias=True)
2020-07-02 16:19:12,260:      (1): ReLU()
2020-07-02 16:19:12,261:      (2): Dropout(p=0.3, inplace=False)
2020-07-02 16:19:12,261:      (3): Linear(in_features=1000, out_features=190, bias=True)
2020-07-02 16:19:12,261:    )
2020-07-02 16:19:12,261:  )
2020-07-02 16:19:12,261:  (oo_b): BasicModule(
2020-07-02 16:19:12,261:    (layers): Sequential(
2020-07-02 16:19:12,261:      (0): Linear(in_features=1024, out_features=1000, bias=True)
2020-07-02 16:19:12,261:      (1): ReLU()
2020-07-02 16:19:12,261:      (2): Dropout(p=0.3, inplace=False)
2020-07-02 16:19:12,261:      (3): Linear(in_features=1000, out_features=190, bias=True)
2020-07-02 16:19:12,261:    )
2020-07-02 16:19:12,261:  )
2020-07-02 16:19:12,261:  (vv_a): BasicModule(
2020-07-02 16:19:12,261:    (layers): Sequential(
2020-07-02 16:19:12,261:      (0): Linear(in_features=1024, out_features=1000, bias=True)
2020-07-02 16:19:12,261:      (1): ReLU()
2020-07-02 16:19:12,261:      (2): Dropout(p=0.3, inplace=False)
2020-07-02 16:19:12,261:      (3): Linear(in_features=1000, out_features=165, bias=True)
2020-07-02 16:19:12,261:    )
2020-07-02 16:19:12,261:  )
2020-07-02 16:19:12,261:  (vv_b): BasicModule(
2020-07-02 16:19:12,261:    (layers): Sequential(
2020-07-02 16:19:12,261:      (0): Linear(in_features=1024, out_features=1000, bias=True)
2020-07-02 16:19:12,261:      (1): ReLU()
2020-07-02 16:19:12,262:      (2): Dropout(p=0.3, inplace=False)
2020-07-02 16:19:12,262:      (3): Linear(in_features=1000, out_features=165, bias=True)
2020-07-02 16:19:12,262:    )
2020-07-02 16:19:12,262:  )
2020-07-02 16:19:12,262:  (so_t_a): BasicModule(
2020-07-02 16:19:12,262:    (layers): Sequential(
2020-07-02 16:19:12,262:      (0): Linear(in_features=1024, out_features=1000, bias=True)
2020-07-02 16:19:12,262:      (1): ReLU()
2020-07-02 16:19:12,262:      (2): Dropout(p=0.3, inplace=False)
2020-07-02 16:19:12,262:      (3): Linear(in_features=1000, out_features=80, bias=True)
2020-07-02 16:19:12,262:    )
2020-07-02 16:19:12,262:  )
2020-07-02 16:19:12,262:  (so_t_b): BasicModule(
2020-07-02 16:19:12,262:    (layers): Sequential(
2020-07-02 16:19:12,262:      (0): Linear(in_features=1024, out_features=1000, bias=True)
2020-07-02 16:19:12,262:      (1): ReLU()
2020-07-02 16:19:12,262:      (2): Dropout(p=0.3, inplace=False)
2020-07-02 16:19:12,262:      (3): Linear(in_features=1000, out_features=190, bias=True)
2020-07-02 16:19:12,262:    )
2020-07-02 16:19:12,262:  )
2020-07-02 16:19:12,262:  (ov_t_a): BasicModule(
2020-07-02 16:19:12,262:    (layers): Sequential(
2020-07-02 16:19:12,262:      (0): Linear(in_features=1024, out_features=1000, bias=True)
2020-07-02 16:19:12,262:      (1): ReLU()
2020-07-02 16:19:12,263:      (2): Dropout(p=0.3, inplace=False)
2020-07-02 16:19:12,263:      (3): Linear(in_features=1000, out_features=190, bias=True)
2020-07-02 16:19:12,263:    )
2020-07-02 16:19:12,263:  )
2020-07-02 16:19:12,263:  (ov_t_b): BasicModule(
2020-07-02 16:19:12,263:    (layers): Sequential(
2020-07-02 16:19:12,263:      (0): Linear(in_features=1024, out_features=1000, bias=True)
2020-07-02 16:19:12,263:      (1): ReLU()
2020-07-02 16:19:12,263:      (2): Dropout(p=0.3, inplace=False)
2020-07-02 16:19:12,263:      (3): Linear(in_features=1000, out_features=165, bias=True)
2020-07-02 16:19:12,263:    )
2020-07-02 16:19:12,263:  )
2020-07-02 16:19:12,263:  (vs_t_a): BasicModule(
2020-07-02 16:19:12,263:    (layers): Sequential(
2020-07-02 16:19:12,263:      (0): Linear(in_features=1024, out_features=1000, bias=True)
2020-07-02 16:19:12,263:      (1): ReLU()
2020-07-02 16:19:12,263:      (2): Dropout(p=0.3, inplace=False)
2020-07-02 16:19:12,263:      (3): Linear(in_features=1000, out_features=165, bias=True)
2020-07-02 16:19:12,263:    )
2020-07-02 16:19:12,263:  )
2020-07-02 16:19:12,263:  (vs_t_b): BasicModule(
2020-07-02 16:19:12,263:    (layers): Sequential(
2020-07-02 16:19:12,263:      (0): Linear(in_features=1024, out_features=1000, bias=True)
2020-07-02 16:19:12,263:      (1): ReLU()
2020-07-02 16:19:12,264:      (2): Dropout(p=0.3, inplace=False)
2020-07-02 16:19:12,264:      (3): Linear(in_features=1000, out_features=80, bias=True)
2020-07-02 16:19:12,264:    )
2020-07-02 16:19:12,264:  )
2020-07-02 16:19:12,264:  (os_t_a): BasicModule(
2020-07-02 16:19:12,264:    (layers): Sequential(
2020-07-02 16:19:12,264:      (0): Linear(in_features=1024, out_features=1000, bias=True)
2020-07-02 16:19:12,264:      (1): ReLU()
2020-07-02 16:19:12,264:      (2): Dropout(p=0.3, inplace=False)
2020-07-02 16:19:12,264:      (3): Linear(in_features=1000, out_features=190, bias=True)
2020-07-02 16:19:12,264:    )
2020-07-02 16:19:12,264:  )
2020-07-02 16:19:12,264:  (os_t_b): BasicModule(
2020-07-02 16:19:12,264:    (layers): Sequential(
2020-07-02 16:19:12,264:      (0): Linear(in_features=1024, out_features=1000, bias=True)
2020-07-02 16:19:12,264:      (1): ReLU()
2020-07-02 16:19:12,264:      (2): Dropout(p=0.3, inplace=False)
2020-07-02 16:19:12,264:      (3): Linear(in_features=1000, out_features=80, bias=True)
2020-07-02 16:19:12,264:    )
2020-07-02 16:19:12,264:  )
2020-07-02 16:19:12,264:  (vo_t_a): BasicModule(
2020-07-02 16:19:12,264:    (layers): Sequential(
2020-07-02 16:19:12,264:      (0): Linear(in_features=1024, out_features=1000, bias=True)
2020-07-02 16:19:12,264:      (1): ReLU()
2020-07-02 16:19:12,265:      (2): Dropout(p=0.3, inplace=False)
2020-07-02 16:19:12,265:      (3): Linear(in_features=1000, out_features=165, bias=True)
2020-07-02 16:19:12,265:    )
2020-07-02 16:19:12,265:  )
2020-07-02 16:19:12,265:  (vo_t_b): BasicModule(
2020-07-02 16:19:12,265:    (layers): Sequential(
2020-07-02 16:19:12,265:      (0): Linear(in_features=1024, out_features=1000, bias=True)
2020-07-02 16:19:12,265:      (1): ReLU()
2020-07-02 16:19:12,265:      (2): Dropout(p=0.3, inplace=False)
2020-07-02 16:19:12,265:      (3): Linear(in_features=1000, out_features=190, bias=True)
2020-07-02 16:19:12,265:    )
2020-07-02 16:19:12,265:  )
2020-07-02 16:19:12,265:  (sv_t_a): BasicModule(
2020-07-02 16:19:12,265:    (layers): Sequential(
2020-07-02 16:19:12,265:      (0): Linear(in_features=1024, out_features=1000, bias=True)
2020-07-02 16:19:12,265:      (1): ReLU()
2020-07-02 16:19:12,265:      (2): Dropout(p=0.3, inplace=False)
2020-07-02 16:19:12,265:      (3): Linear(in_features=1000, out_features=80, bias=True)
2020-07-02 16:19:12,265:    )
2020-07-02 16:19:12,265:  )
2020-07-02 16:19:12,265:  (sv_t_b): BasicModule(
2020-07-02 16:19:12,265:    (layers): Sequential(
2020-07-02 16:19:12,265:      (0): Linear(in_features=1024, out_features=1000, bias=True)
2020-07-02 16:19:12,266:      (1): ReLU()
2020-07-02 16:19:12,266:      (2): Dropout(p=0.3, inplace=False)
2020-07-02 16:19:12,266:      (3): Linear(in_features=1000, out_features=165, bias=True)
2020-07-02 16:19:12,266:    )
2020-07-02 16:19:12,266:  )
2020-07-02 16:19:12,266:)
2020-07-02 16:19:12,266:args.dataset:
2020-07-02 16:19:12,266:charades
2020-07-02 16:19:13,068:cachefile ./gsteg/cr_caches//Charades_train.pkl
2020-07-02 16:19:13,160:0 ./gsteg/Charades_v1_rgb//46GP8
2020-07-02 16:19:21,155:100 ./gsteg/Charades_v1_rgb//U3VOM
2020-07-02 16:19:28,337:200 ./gsteg/Charades_v1_rgb//CO1S9
…
