…
2020-07-20 11:16:30,280:1.4 define loss function
2020-07-20 11:16:30,281:=> loading checkpoint './gsteg/cr_caches/test/model.pth.tar'
2020-07-20 11:16:30,371:=> loaded checkpoint './gsteg/cr_caches/test/model.pth.tar' (epoch 7)
2020-07-20 11:16:30,371:base_model
2020-07-20 11:16:30,372:DataParallel(
2020-07-20 11:16:30,372:  (module): InceptionI3d(
2020-07-20 11:16:30,372:    (avg_pool): AvgPool3d(kernel_size=[2, 7, 7], stride=(1, 1, 1), padding=0)
2020-07-20 11:16:30,372:    (dropout): Dropout(p=0.5, inplace=False)
2020-07-20 11:16:30,372:    (logits): Unit3D(
2020-07-20 11:16:30,372:      (conv3d): Conv3d(1024, 157, kernel_size=[1, 1, 1], stride=(1, 1, 1))
2020-07-20 11:16:30,373:    )
2020-07-20 11:16:30,373:    (Conv3d_1a_7x7): Unit3D(
2020-07-20 11:16:30,373:      (conv3d): Conv3d(3, 64, kernel_size=[7, 7, 7], stride=(2, 2, 2), bias=False)
2020-07-20 11:16:30,373:      (bn): BatchNorm3d(64, eps=0.001, momentum=0.01, affine=True, track_running_stats=True)
2020-07-20 11:16:30,373:    )
2020-07-20 11:16:30,373:    (MaxPool3d_2a_3x3): MaxPool3dSamePadding(kernel_size=[1, 3, 3], stride=(1, 2, 2), padding=0, dilation=1, ceil_mode=False)
2020-07-20 11:16:30,373:    (Conv3d_2b_1x1): Unit3D(
2020-07-20 11:16:30,373:      (conv3d): Conv3d(64, 64, kernel_size=[1, 1, 1], stride=(1, 1, 1), bias=False)
2020-07-20 11:16:30,373:      (bn): BatchNorm3d(64, eps=0.001, momentum=0.01, affine=True, track_running_stats=True)
2020-07-20 11:16:30,373:    )
2020-07-20 11:16:30,373:    (Conv3d_2c_3x3): Unit3D(
2020-07-20 11:16:30,373:      (conv3d): Conv3d(64, 192, kernel_size=[3, 3, 3], stride=(1, 1, 1), bias=False)
2020-07-20 11:16:30,373:      (bn): BatchNorm3d(192, eps=0.001, momentum=0.01, affine=True, track_running_stats=True)
2020-07-20 11:16:30,373:    )
2020-07-20 11:16:30,373:    (MaxPool3d_3a_3x3): MaxPool3dSamePadding(kernel_size=[1, 3, 3], stride=(1, 2, 2), padding=0, dilation=1, ceil_mode=False)
2020-07-20 11:16:30,373:    (Mixed_3b): InceptionModule(
2020-07-20 11:16:30,373:      (b0): Unit3D(
2020-07-20 11:16:30,373:        (conv3d): Conv3d(192, 64, kernel_size=[1, 1, 1], stride=(1, 1, 1), bias=False)
2020-07-20 11:16:30,373:        (bn): BatchNorm3d(64, eps=0.001, momentum=0.01, affine=True, track_running_stats=True)
2020-07-20 11:16:30,373:      )
2020-07-20 11:16:30,373:      (b1a): Unit3D(
2020-07-20 11:16:30,373:        (conv3d): Conv3d(192, 96, kernel_size=[1, 1, 1], stride=(1, 1, 1), bias=False)
2020-07-20 11:16:30,373:        (bn): BatchNorm3d(96, eps=0.001, momentum=0.01, affine=True, track_running_stats=True)
2020-07-20 11:16:30,373:      )
2020-07-20 11:16:30,373:      (b1b): Unit3D(
2020-07-20 11:16:30,373:        (conv3d): Conv3d(96, 128, kernel_size=[3, 3, 3], stride=(1, 1, 1), bias=False)
2020-07-20 11:16:30,373:        (bn): BatchNorm3d(128, eps=0.001, momentum=0.01, affine=True, track_running_stats=True)
2020-07-20 11:16:30,373:      )
2020-07-20 11:16:30,373:      (b2a): Unit3D(
2020-07-20 11:16:30,373:        (conv3d): Conv3d(192, 16, kernel_size=[1, 1, 1], stride=(1, 1, 1), bias=False)
2020-07-20 11:16:30,373:        (bn): BatchNorm3d(16, eps=0.001, momentum=0.01, affine=True, track_running_stats=True)
2020-07-20 11:16:30,373:      )
2020-07-20 11:16:30,373:      (b2b): Unit3D(
2020-07-20 11:16:30,373:        (conv3d): Conv3d(16, 32, kernel_size=[3, 3, 3], stride=(1, 1, 1), bias=False)
2020-07-20 11:16:30,373:        (bn): BatchNorm3d(32, eps=0.001, momentum=0.01, affine=True, track_running_stats=True)
2020-07-20 11:16:30,373:      )
2020-07-20 11:16:30,373:      (b3a): MaxPool3dSamePadding(kernel_size=[3, 3, 3], stride=(1, 1, 1), padding=0, dilation=1, ceil_mode=False)
2020-07-20 11:16:30,373:      (b3b): Unit3D(
2020-07-20 11:16:30,373:        (conv3d): Conv3d(192, 32, kernel_size=[1, 1, 1], stride=(1, 1, 1), bias=False)
2020-07-20 11:16:30,373:        (bn): BatchNorm3d(32, eps=0.001, momentum=0.01, affine=True, track_running_stats=True)
2020-07-20 11:16:30,373:      )
2020-07-20 11:16:30,373:    )
2020-07-20 11:16:30,373:    (Mixed_3c): InceptionModule(
2020-07-20 11:16:30,373:      (b0): Unit3D(
2020-07-20 11:16:30,373:        (conv3d): Conv3d(256, 128, kernel_size=[1, 1, 1], stride=(1, 1, 1), bias=False)
2020-07-20 11:16:30,373:        (bn): BatchNorm3d(128, eps=0.001, momentum=0.01, affine=True, track_running_stats=True)
2020-07-20 11:16:30,373:      )
2020-07-20 11:16:30,373:      (b1a): Unit3D(
2020-07-20 11:16:30,373:        (conv3d): Conv3d(256, 128, kernel_size=[1, 1, 1], stride=(1, 1, 1), bias=False)
2020-07-20 11:16:30,373:        (bn): BatchNorm3d(128, eps=0.001, momentum=0.01, affine=True, track_running_stats=True)
2020-07-20 11:16:30,373:      )
2020-07-20 11:16:30,373:      (b1b): Unit3D(
2020-07-20 11:16:30,373:        (conv3d): Conv3d(128, 192, kernel_size=[3, 3, 3], stride=(1, 1, 1), bias=False)
2020-07-20 11:16:30,373:        (bn): BatchNorm3d(192, eps=0.001, momentum=0.01, affine=True, track_running_stats=True)
2020-07-20 11:16:30,373:      )
2020-07-20 11:16:30,373:      (b2a): Unit3D(
2020-07-20 11:16:30,373:        (conv3d): Conv3d(256, 32, kernel_size=[1, 1, 1], stride=(1, 1, 1), bias=False)
2020-07-20 11:16:30,373:        (bn): BatchNorm3d(32, eps=0.001, momentum=0.01, affine=True, track_running_stats=True)
2020-07-20 11:16:30,373:      )
2020-07-20 11:16:30,373:      (b2b): Unit3D(
2020-07-20 11:16:30,373:        (conv3d): Conv3d(32, 96, kernel_size=[3, 3, 3], stride=(1, 1, 1), bias=False)
2020-07-20 11:16:30,373:        (bn): BatchNorm3d(96, eps=0.001, momentum=0.01, affine=True, track_running_stats=True)
2020-07-20 11:16:30,373:      )
2020-07-20 11:16:30,374:      (b3a): MaxPool3dSamePadding(kernel_size=[3, 3, 3], stride=(1, 1, 1), padding=0, dilation=1, ceil_mode=False)
2020-07-20 11:16:30,374:      (b3b): Unit3D(
2020-07-20 11:16:30,374:        (conv3d): Conv3d(256, 64, kernel_size=[1, 1, 1], stride=(1, 1, 1), bias=False)
2020-07-20 11:16:30,374:        (bn): BatchNorm3d(64, eps=0.001, momentum=0.01, affine=True, track_running_stats=True)
2020-07-20 11:16:30,374:      )
2020-07-20 11:16:30,374:    )
2020-07-20 11:16:30,374:    (MaxPool3d_4a_3x3): MaxPool3dSamePadding(kernel_size=[3, 3, 3], stride=(2, 2, 2), padding=0, dilation=1, ceil_mode=False)
2020-07-20 11:16:30,374:    (Mixed_4b): InceptionModule(
2020-07-20 11:16:30,374:      (b0): Unit3D(
2020-07-20 11:16:30,374:        (conv3d): Conv3d(480, 192, kernel_size=[1, 1, 1], stride=(1, 1, 1), bias=False)
2020-07-20 11:16:30,374:        (bn): BatchNorm3d(192, eps=0.001, momentum=0.01, affine=True, track_running_stats=True)
2020-07-20 11:16:30,374:      )
2020-07-20 11:16:30,374:      (b1a): Unit3D(
2020-07-20 11:16:30,374:        (conv3d): Conv3d(480, 96, kernel_size=[1, 1, 1], stride=(1, 1, 1), bias=False)
2020-07-20 11:16:30,374:        (bn): BatchNorm3d(96, eps=0.001, momentum=0.01, affine=True, track_running_stats=True)
2020-07-20 11:16:30,374:      )
2020-07-20 11:16:30,374:      (b1b): Unit3D(
2020-07-20 11:16:30,374:        (conv3d): Conv3d(96, 208, kernel_size=[3, 3, 3], stride=(1, 1, 1), bias=False)
2020-07-20 11:16:30,374:        (bn): BatchNorm3d(208, eps=0.001, momentum=0.01, affine=True, track_running_stats=True)
2020-07-20 11:16:30,374:      )
2020-07-20 11:16:30,374:      (b2a): Unit3D(
2020-07-20 11:16:30,374:        (conv3d): Conv3d(480, 16, kernel_size=[1, 1, 1], stride=(1, 1, 1), bias=False)
2020-07-20 11:16:30,374:        (bn): BatchNorm3d(16, eps=0.001, momentum=0.01, affine=True, track_running_stats=True)
2020-07-20 11:16:30,374:      )
2020-07-20 11:16:30,374:      (b2b): Unit3D(
2020-07-20 11:16:30,374:        (conv3d): Conv3d(16, 48, kernel_size=[3, 3, 3], stride=(1, 1, 1), bias=False)
2020-07-20 11:16:30,374:        (bn): BatchNorm3d(48, eps=0.001, momentum=0.01, affine=True, track_running_stats=True)
2020-07-20 11:16:30,374:      )
2020-07-20 11:16:30,374:      (b3a): MaxPool3dSamePadding(kernel_size=[3, 3, 3], stride=(1, 1, 1), padding=0, dilation=1, ceil_mode=False)
2020-07-20 11:16:30,374:      (b3b): Unit3D(
2020-07-20 11:16:30,374:        (conv3d): Conv3d(480, 64, kernel_size=[1, 1, 1], stride=(1, 1, 1), bias=False)
2020-07-20 11:16:30,374:        (bn): BatchNorm3d(64, eps=0.001, momentum=0.01, affine=True, track_running_stats=True)
2020-07-20 11:16:30,374:      )
2020-07-20 11:16:30,374:    )
2020-07-20 11:16:30,374:    (Mixed_4c): InceptionModule(
2020-07-20 11:16:30,374:      (b0): Unit3D(
2020-07-20 11:16:30,374:        (conv3d): Conv3d(512, 160, kernel_size=[1, 1, 1], stride=(1, 1, 1), bias=False)
2020-07-20 11:16:30,374:        (bn): BatchNorm3d(160, eps=0.001, momentum=0.01, affine=True, track_running_stats=True)
2020-07-20 11:16:30,374:      )
2020-07-20 11:16:30,374:      (b1a): Unit3D(
2020-07-20 11:16:30,374:        (conv3d): Conv3d(512, 112, kernel_size=[1, 1, 1], stride=(1, 1, 1), bias=False)
2020-07-20 11:16:30,374:        (bn): BatchNorm3d(112, eps=0.001, momentum=0.01, affine=True, track_running_stats=True)
2020-07-20 11:16:30,374:      )
2020-07-20 11:16:30,374:      (b1b): Unit3D(
2020-07-20 11:16:30,374:        (conv3d): Conv3d(112, 224, kernel_size=[3, 3, 3], stride=(1, 1, 1), bias=False)
2020-07-20 11:16:30,374:        (bn): BatchNorm3d(224, eps=0.001, momentum=0.01, affine=True, track_running_stats=True)
2020-07-20 11:16:30,374:      )
2020-07-20 11:16:30,374:      (b2a): Unit3D(
2020-07-20 11:16:30,374:        (conv3d): Conv3d(512, 24, kernel_size=[1, 1, 1], stride=(1, 1, 1), bias=False)
2020-07-20 11:16:30,374:        (bn): BatchNorm3d(24, eps=0.001, momentum=0.01, affine=True, track_running_stats=True)
2020-07-20 11:16:30,374:      )
2020-07-20 11:16:30,374:      (b2b): Unit3D(
2020-07-20 11:16:30,374:        (conv3d): Conv3d(24, 64, kernel_size=[3, 3, 3], stride=(1, 1, 1), bias=False)
2020-07-20 11:16:30,374:        (bn): BatchNorm3d(64, eps=0.001, momentum=0.01, affine=True, track_running_stats=True)
2020-07-20 11:16:30,374:      )
2020-07-20 11:16:30,374:      (b3a): MaxPool3dSamePadding(kernel_size=[3, 3, 3], stride=(1, 1, 1), padding=0, dilation=1, ceil_mode=False)
2020-07-20 11:16:30,374:      (b3b): Unit3D(
2020-07-20 11:16:30,374:        (conv3d): Conv3d(512, 64, kernel_size=[1, 1, 1], stride=(1, 1, 1), bias=False)
2020-07-20 11:16:30,374:        (bn): BatchNorm3d(64, eps=0.001, momentum=0.01, affine=True, track_running_stats=True)
2020-07-20 11:16:30,374:      )
2020-07-20 11:16:30,374:    )
2020-07-20 11:16:30,374:    (Mixed_4d): InceptionModule(
2020-07-20 11:16:30,375:      (b0): Unit3D(
2020-07-20 11:16:30,375:        (conv3d): Conv3d(512, 128, kernel_size=[1, 1, 1], stride=(1, 1, 1), bias=False)
2020-07-20 11:16:30,375:        (bn): BatchNorm3d(128, eps=0.001, momentum=0.01, affine=True, track_running_stats=True)
2020-07-20 11:16:30,375:      )
2020-07-20 11:16:30,375:      (b1a): Unit3D(
2020-07-20 11:16:30,375:        (conv3d): Conv3d(512, 128, kernel_size=[1, 1, 1], stride=(1, 1, 1), bias=False)
2020-07-20 11:16:30,375:        (bn): BatchNorm3d(128, eps=0.001, momentum=0.01, affine=True, track_running_stats=True)
2020-07-20 11:16:30,375:      )
2020-07-20 11:16:30,375:      (b1b): Unit3D(
2020-07-20 11:16:30,375:        (conv3d): Conv3d(128, 256, kernel_size=[3, 3, 3], stride=(1, 1, 1), bias=False)
2020-07-20 11:16:30,375:        (bn): BatchNorm3d(256, eps=0.001, momentum=0.01, affine=True, track_running_stats=True)
2020-07-20 11:16:30,375:      )
2020-07-20 11:16:30,375:      (b2a): Unit3D(
2020-07-20 11:16:30,375:        (conv3d): Conv3d(512, 24, kernel_size=[1, 1, 1], stride=(1, 1, 1), bias=False)
2020-07-20 11:16:30,375:        (bn): BatchNorm3d(24, eps=0.001, momentum=0.01, affine=True, track_running_stats=True)
2020-07-20 11:16:30,375:      )
2020-07-20 11:16:30,375:      (b2b): Unit3D(
2020-07-20 11:16:30,375:        (conv3d): Conv3d(24, 64, kernel_size=[3, 3, 3], stride=(1, 1, 1), bias=False)
2020-07-20 11:16:30,375:        (bn): BatchNorm3d(64, eps=0.001, momentum=0.01, affine=True, track_running_stats=True)
2020-07-20 11:16:30,375:      )
2020-07-20 11:16:30,375:      (b3a): MaxPool3dSamePadding(kernel_size=[3, 3, 3], stride=(1, 1, 1), padding=0, dilation=1, ceil_mode=False)
2020-07-20 11:16:30,375:      (b3b): Unit3D(
2020-07-20 11:16:30,375:        (conv3d): Conv3d(512, 64, kernel_size=[1, 1, 1], stride=(1, 1, 1), bias=False)
2020-07-20 11:16:30,375:        (bn): BatchNorm3d(64, eps=0.001, momentum=0.01, affine=True, track_running_stats=True)
2020-07-20 11:16:30,375:      )
2020-07-20 11:16:30,375:    )
2020-07-20 11:16:30,375:    (Mixed_4e): InceptionModule(
2020-07-20 11:16:30,375:      (b0): Unit3D(
2020-07-20 11:16:30,375:        (conv3d): Conv3d(512, 112, kernel_size=[1, 1, 1], stride=(1, 1, 1), bias=False)
2020-07-20 11:16:30,375:        (bn): BatchNorm3d(112, eps=0.001, momentum=0.01, affine=True, track_running_stats=True)
2020-07-20 11:16:30,375:      )
2020-07-20 11:16:30,375:      (b1a): Unit3D(
2020-07-20 11:16:30,375:        (conv3d): Conv3d(512, 144, kernel_size=[1, 1, 1], stride=(1, 1, 1), bias=False)
2020-07-20 11:16:30,375:        (bn): BatchNorm3d(144, eps=0.001, momentum=0.01, affine=True, track_running_stats=True)
2020-07-20 11:16:30,375:      )
2020-07-20 11:16:30,375:      (b1b): Unit3D(
2020-07-20 11:16:30,375:        (conv3d): Conv3d(144, 288, kernel_size=[3, 3, 3], stride=(1, 1, 1), bias=False)
2020-07-20 11:16:30,375:        (bn): BatchNorm3d(288, eps=0.001, momentum=0.01, affine=True, track_running_stats=True)
2020-07-20 11:16:30,375:      )
2020-07-20 11:16:30,375:      (b2a): Unit3D(
2020-07-20 11:16:30,375:        (conv3d): Conv3d(512, 32, kernel_size=[1, 1, 1], stride=(1, 1, 1), bias=False)
2020-07-20 11:16:30,375:        (bn): BatchNorm3d(32, eps=0.001, momentum=0.01, affine=True, track_running_stats=True)
2020-07-20 11:16:30,375:      )
2020-07-20 11:16:30,375:      (b2b): Unit3D(
2020-07-20 11:16:30,375:        (conv3d): Conv3d(32, 64, kernel_size=[3, 3, 3], stride=(1, 1, 1), bias=False)
2020-07-20 11:16:30,375:        (bn): BatchNorm3d(64, eps=0.001, momentum=0.01, affine=True, track_running_stats=True)
2020-07-20 11:16:30,375:      )
2020-07-20 11:16:30,375:      (b3a): MaxPool3dSamePadding(kernel_size=[3, 3, 3], stride=(1, 1, 1), padding=0, dilation=1, ceil_mode=False)
2020-07-20 11:16:30,375:      (b3b): Unit3D(
2020-07-20 11:16:30,375:        (conv3d): Conv3d(512, 64, kernel_size=[1, 1, 1], stride=(1, 1, 1), bias=False)
2020-07-20 11:16:30,375:        (bn): BatchNorm3d(64, eps=0.001, momentum=0.01, affine=True, track_running_stats=True)
2020-07-20 11:16:30,375:      )
2020-07-20 11:16:30,375:    )
2020-07-20 11:16:30,375:    (Mixed_4f): InceptionModule(
2020-07-20 11:16:30,375:      (b0): Unit3D(
2020-07-20 11:16:30,375:        (conv3d): Conv3d(528, 256, kernel_size=[1, 1, 1], stride=(1, 1, 1), bias=False)
2020-07-20 11:16:30,375:        (bn): BatchNorm3d(256, eps=0.001, momentum=0.01, affine=True, track_running_stats=True)
2020-07-20 11:16:30,375:      )
2020-07-20 11:16:30,375:      (b1a): Unit3D(
2020-07-20 11:16:30,375:        (conv3d): Conv3d(528, 160, kernel_size=[1, 1, 1], stride=(1, 1, 1), bias=False)
2020-07-20 11:16:30,375:        (bn): BatchNorm3d(160, eps=0.001, momentum=0.01, affine=True, track_running_stats=True)
2020-07-20 11:16:30,375:      )
2020-07-20 11:16:30,375:      (b1b): Unit3D(
2020-07-20 11:16:30,376:        (conv3d): Conv3d(160, 320, kernel_size=[3, 3, 3], stride=(1, 1, 1), bias=False)
2020-07-20 11:16:30,376:        (bn): BatchNorm3d(320, eps=0.001, momentum=0.01, affine=True, track_running_stats=True)
2020-07-20 11:16:30,376:      )
2020-07-20 11:16:30,376:      (b2a): Unit3D(
2020-07-20 11:16:30,376:        (conv3d): Conv3d(528, 32, kernel_size=[1, 1, 1], stride=(1, 1, 1), bias=False)
2020-07-20 11:16:30,376:        (bn): BatchNorm3d(32, eps=0.001, momentum=0.01, affine=True, track_running_stats=True)
2020-07-20 11:16:30,376:      )
2020-07-20 11:16:30,376:      (b2b): Unit3D(
2020-07-20 11:16:30,376:        (conv3d): Conv3d(32, 128, kernel_size=[3, 3, 3], stride=(1, 1, 1), bias=False)
2020-07-20 11:16:30,376:        (bn): BatchNorm3d(128, eps=0.001, momentum=0.01, affine=True, track_running_stats=True)
2020-07-20 11:16:30,376:      )
2020-07-20 11:16:30,376:      (b3a): MaxPool3dSamePadding(kernel_size=[3, 3, 3], stride=(1, 1, 1), padding=0, dilation=1, ceil_mode=False)
2020-07-20 11:16:30,376:      (b3b): Unit3D(
2020-07-20 11:16:30,376:        (conv3d): Conv3d(528, 128, kernel_size=[1, 1, 1], stride=(1, 1, 1), bias=False)
2020-07-20 11:16:30,376:        (bn): BatchNorm3d(128, eps=0.001, momentum=0.01, affine=True, track_running_stats=True)
2020-07-20 11:16:30,376:      )
2020-07-20 11:16:30,376:    )
2020-07-20 11:16:30,376:    (MaxPool3d_5a_2x2): MaxPool3dSamePadding(kernel_size=[2, 2, 2], stride=(2, 2, 2), padding=0, dilation=1, ceil_mode=False)
2020-07-20 11:16:30,376:    (Mixed_5b): InceptionModule(
2020-07-20 11:16:30,376:      (b0): Unit3D(
2020-07-20 11:16:30,376:        (conv3d): Conv3d(832, 256, kernel_size=[1, 1, 1], stride=(1, 1, 1), bias=False)
2020-07-20 11:16:30,376:        (bn): BatchNorm3d(256, eps=0.001, momentum=0.01, affine=True, track_running_stats=True)
2020-07-20 11:16:30,376:      )
2020-07-20 11:16:30,376:      (b1a): Unit3D(
2020-07-20 11:16:30,376:        (conv3d): Conv3d(832, 160, kernel_size=[1, 1, 1], stride=(1, 1, 1), bias=False)
2020-07-20 11:16:30,376:        (bn): BatchNorm3d(160, eps=0.001, momentum=0.01, affine=True, track_running_stats=True)
2020-07-20 11:16:30,376:      )
2020-07-20 11:16:30,376:      (b1b): Unit3D(
2020-07-20 11:16:30,376:        (conv3d): Conv3d(160, 320, kernel_size=[3, 3, 3], stride=(1, 1, 1), bias=False)
2020-07-20 11:16:30,376:        (bn): BatchNorm3d(320, eps=0.001, momentum=0.01, affine=True, track_running_stats=True)
2020-07-20 11:16:30,376:      )
2020-07-20 11:16:30,376:      (b2a): Unit3D(
2020-07-20 11:16:30,376:        (conv3d): Conv3d(832, 32, kernel_size=[1, 1, 1], stride=(1, 1, 1), bias=False)
2020-07-20 11:16:30,376:        (bn): BatchNorm3d(32, eps=0.001, momentum=0.01, affine=True, track_running_stats=True)
2020-07-20 11:16:30,376:      )
2020-07-20 11:16:30,376:      (b2b): Unit3D(
2020-07-20 11:16:30,376:        (conv3d): Conv3d(32, 128, kernel_size=[3, 3, 3], stride=(1, 1, 1), bias=False)
2020-07-20 11:16:30,376:        (bn): BatchNorm3d(128, eps=0.001, momentum=0.01, affine=True, track_running_stats=True)
2020-07-20 11:16:30,376:      )
2020-07-20 11:16:30,376:      (b3a): MaxPool3dSamePadding(kernel_size=[3, 3, 3], stride=(1, 1, 1), padding=0, dilation=1, ceil_mode=False)
2020-07-20 11:16:30,376:      (b3b): Unit3D(
2020-07-20 11:16:30,376:        (conv3d): Conv3d(832, 128, kernel_size=[1, 1, 1], stride=(1, 1, 1), bias=False)
2020-07-20 11:16:30,376:        (bn): BatchNorm3d(128, eps=0.001, momentum=0.01, affine=True, track_running_stats=True)
2020-07-20 11:16:30,376:      )
2020-07-20 11:16:30,376:    )
2020-07-20 11:16:30,376:    (Mixed_5c): InceptionModule(
2020-07-20 11:16:30,376:      (b0): Unit3D(
2020-07-20 11:16:30,376:        (conv3d): Conv3d(832, 384, kernel_size=[1, 1, 1], stride=(1, 1, 1), bias=False)
2020-07-20 11:16:30,376:        (bn): BatchNorm3d(384, eps=0.001, momentum=0.01, affine=True, track_running_stats=True)
2020-07-20 11:16:30,376:      )
2020-07-20 11:16:30,376:      (b1a): Unit3D(
2020-07-20 11:16:30,376:        (conv3d): Conv3d(832, 192, kernel_size=[1, 1, 1], stride=(1, 1, 1), bias=False)
2020-07-20 11:16:30,376:        (bn): BatchNorm3d(192, eps=0.001, momentum=0.01, affine=True, track_running_stats=True)
2020-07-20 11:16:30,376:      )
2020-07-20 11:16:30,376:      (b1b): Unit3D(
2020-07-20 11:16:30,376:        (conv3d): Conv3d(192, 384, kernel_size=[3, 3, 3], stride=(1, 1, 1), bias=False)
2020-07-20 11:16:30,376:        (bn): BatchNorm3d(384, eps=0.001, momentum=0.01, affine=True, track_running_stats=True)
2020-07-20 11:16:30,376:      )
2020-07-20 11:16:30,376:      (b2a): Unit3D(
2020-07-20 11:16:30,376:        (conv3d): Conv3d(832, 48, kernel_size=[1, 1, 1], stride=(1, 1, 1), bias=False)
2020-07-20 11:16:30,376:        (bn): BatchNorm3d(48, eps=0.001, momentum=0.01, affine=True, track_running_stats=True)
2020-07-20 11:16:30,376:      )
2020-07-20 11:16:30,376:      (b2b): Unit3D(
2020-07-20 11:16:30,377:        (conv3d): Conv3d(48, 128, kernel_size=[3, 3, 3], stride=(1, 1, 1), bias=False)
2020-07-20 11:16:30,377:        (bn): BatchNorm3d(128, eps=0.001, momentum=0.01, affine=True, track_running_stats=True)
2020-07-20 11:16:30,377:      )
2020-07-20 11:16:30,377:      (b3a): MaxPool3dSamePadding(kernel_size=[3, 3, 3], stride=(1, 1, 1), padding=0, dilation=1, ceil_mode=False)
2020-07-20 11:16:30,377:      (b3b): Unit3D(
2020-07-20 11:16:30,377:        (conv3d): Conv3d(832, 128, kernel_size=[1, 1, 1], stride=(1, 1, 1), bias=False)
2020-07-20 11:16:30,377:        (bn): BatchNorm3d(128, eps=0.001, momentum=0.01, affine=True, track_running_stats=True)
2020-07-20 11:16:30,377:      )
2020-07-20 11:16:30,377:    )
2020-07-20 11:16:30,377:  )
2020-07-20 11:16:30,377:)
2020-07-20 11:16:30,377:logits_model
2020-07-20 11:16:30,378:AsyncTFBase(
2020-07-20 11:16:30,378:  (s): Sequential(
2020-07-20 11:16:30,378:    (0): Linear(in_features=1024, out_features=1000, bias=True)
2020-07-20 11:16:30,378:    (1): ReLU()
2020-07-20 11:16:30,378:    (2): Dropout(p=0.3, inplace=False)
2020-07-20 11:16:30,378:    (3): Linear(in_features=1000, out_features=1000, bias=True)
2020-07-20 11:16:30,378:    (4): ReLU()
2020-07-20 11:16:30,378:    (5): Dropout(p=0.3, inplace=False)
2020-07-20 11:16:30,378:    (6): Linear(in_features=1000, out_features=16, bias=True)
2020-07-20 11:16:30,378:  )
2020-07-20 11:16:30,378:  (o): Linear(in_features=1024, out_features=38, bias=True)
2020-07-20 11:16:30,378:  (v): Linear(in_features=1024, out_features=33, bias=True)
2020-07-20 11:16:30,378:  (so_a): BasicModule(
2020-07-20 11:16:30,378:    (layers): Sequential(
2020-07-20 11:16:30,378:      (0): Linear(in_features=1024, out_features=1000, bias=True)
2020-07-20 11:16:30,378:      (1): ReLU()
2020-07-20 11:16:30,378:      (2): Dropout(p=0.3, inplace=False)
2020-07-20 11:16:30,378:      (3): Linear(in_features=1000, out_features=80, bias=True)
2020-07-20 11:16:30,378:    )
2020-07-20 11:16:30,378:  )
2020-07-20 11:16:30,378:  (so_b): BasicModule(
2020-07-20 11:16:30,378:    (layers): Sequential(
2020-07-20 11:16:30,378:      (0): Linear(in_features=1024, out_features=1000, bias=True)
2020-07-20 11:16:30,378:      (1): ReLU()
2020-07-20 11:16:30,378:      (2): Dropout(p=0.3, inplace=False)
2020-07-20 11:16:30,378:      (3): Linear(in_features=1000, out_features=190, bias=True)
2020-07-20 11:16:30,378:    )
2020-07-20 11:16:30,378:  )
2020-07-20 11:16:30,378:  (ov_a): BasicModule(
2020-07-20 11:16:30,378:    (layers): Sequential(
2020-07-20 11:16:30,378:      (0): Linear(in_features=1024, out_features=1000, bias=True)
2020-07-20 11:16:30,378:      (1): ReLU()
2020-07-20 11:16:30,378:      (2): Dropout(p=0.3, inplace=False)
2020-07-20 11:16:30,378:      (3): Linear(in_features=1000, out_features=190, bias=True)
2020-07-20 11:16:30,378:    )
2020-07-20 11:16:30,378:  )
2020-07-20 11:16:30,378:  (ov_b): BasicModule(
2020-07-20 11:16:30,378:    (layers): Sequential(
2020-07-20 11:16:30,378:      (0): Linear(in_features=1024, out_features=1000, bias=True)
2020-07-20 11:16:30,378:      (1): ReLU()
2020-07-20 11:16:30,378:      (2): Dropout(p=0.3, inplace=False)
2020-07-20 11:16:30,378:      (3): Linear(in_features=1000, out_features=165, bias=True)
2020-07-20 11:16:30,378:    )
2020-07-20 11:16:30,378:  )
2020-07-20 11:16:30,378:  (vs_a): BasicModule(
2020-07-20 11:16:30,378:    (layers): Sequential(
2020-07-20 11:16:30,378:      (0): Linear(in_features=1024, out_features=1000, bias=True)
2020-07-20 11:16:30,378:      (1): ReLU()
2020-07-20 11:16:30,378:      (2): Dropout(p=0.3, inplace=False)
2020-07-20 11:16:30,378:      (3): Linear(in_features=1000, out_features=165, bias=True)
2020-07-20 11:16:30,378:    )
2020-07-20 11:16:30,378:  )
2020-07-20 11:16:30,378:  (vs_b): BasicModule(
2020-07-20 11:16:30,378:    (layers): Sequential(
2020-07-20 11:16:30,378:      (0): Linear(in_features=1024, out_features=1000, bias=True)
2020-07-20 11:16:30,378:      (1): ReLU()
2020-07-20 11:16:30,378:      (2): Dropout(p=0.3, inplace=False)
2020-07-20 11:16:30,378:      (3): Linear(in_features=1000, out_features=80, bias=True)
2020-07-20 11:16:30,379:    )
2020-07-20 11:16:30,379:  )
2020-07-20 11:16:30,379:  (ss_a): BasicModule(
2020-07-20 11:16:30,379:    (layers): Sequential(
2020-07-20 11:16:30,379:      (0): Linear(in_features=1024, out_features=1000, bias=True)
2020-07-20 11:16:30,379:      (1): ReLU()
2020-07-20 11:16:30,379:      (2): Dropout(p=0.3, inplace=False)
2020-07-20 11:16:30,379:      (3): Linear(in_features=1000, out_features=80, bias=True)
2020-07-20 11:16:30,379:    )
2020-07-20 11:16:30,379:  )
2020-07-20 11:16:30,379:  (ss_b): BasicModule(
2020-07-20 11:16:30,379:    (layers): Sequential(
2020-07-20 11:16:30,379:      (0): Linear(in_features=1024, out_features=1000, bias=True)
2020-07-20 11:16:30,379:      (1): ReLU()
2020-07-20 11:16:30,379:      (2): Dropout(p=0.3, inplace=False)
2020-07-20 11:16:30,379:      (3): Linear(in_features=1000, out_features=80, bias=True)
2020-07-20 11:16:30,379:    )
2020-07-20 11:16:30,379:  )
2020-07-20 11:16:30,379:  (oo_a): BasicModule(
2020-07-20 11:16:30,379:    (layers): Sequential(
2020-07-20 11:16:30,379:      (0): Linear(in_features=1024, out_features=1000, bias=True)
2020-07-20 11:16:30,379:      (1): ReLU()
2020-07-20 11:16:30,379:      (2): Dropout(p=0.3, inplace=False)
2020-07-20 11:16:30,379:      (3): Linear(in_features=1000, out_features=190, bias=True)
2020-07-20 11:16:30,379:    )
2020-07-20 11:16:30,379:  )
2020-07-20 11:16:30,379:  (oo_b): BasicModule(
2020-07-20 11:16:30,379:    (layers): Sequential(
2020-07-20 11:16:30,379:      (0): Linear(in_features=1024, out_features=1000, bias=True)
2020-07-20 11:16:30,379:      (1): ReLU()
2020-07-20 11:16:30,379:      (2): Dropout(p=0.3, inplace=False)
2020-07-20 11:16:30,379:      (3): Linear(in_features=1000, out_features=190, bias=True)
2020-07-20 11:16:30,379:    )
2020-07-20 11:16:30,379:  )
2020-07-20 11:16:30,379:  (vv_a): BasicModule(
2020-07-20 11:16:30,379:    (layers): Sequential(
2020-07-20 11:16:30,379:      (0): Linear(in_features=1024, out_features=1000, bias=True)
2020-07-20 11:16:30,379:      (1): ReLU()
2020-07-20 11:16:30,379:      (2): Dropout(p=0.3, inplace=False)
2020-07-20 11:16:30,379:      (3): Linear(in_features=1000, out_features=165, bias=True)
2020-07-20 11:16:30,379:    )
2020-07-20 11:16:30,379:  )
2020-07-20 11:16:30,379:  (vv_b): BasicModule(
2020-07-20 11:16:30,379:    (layers): Sequential(
2020-07-20 11:16:30,379:      (0): Linear(in_features=1024, out_features=1000, bias=True)
2020-07-20 11:16:30,379:      (1): ReLU()
2020-07-20 11:16:30,379:      (2): Dropout(p=0.3, inplace=False)
2020-07-20 11:16:30,379:      (3): Linear(in_features=1000, out_features=165, bias=True)
2020-07-20 11:16:30,379:    )
2020-07-20 11:16:30,379:  )
2020-07-20 11:16:30,379:  (so_t_a): BasicModule(
2020-07-20 11:16:30,379:    (layers): Sequential(
2020-07-20 11:16:30,379:      (0): Linear(in_features=1024, out_features=1000, bias=True)
2020-07-20 11:16:30,379:      (1): ReLU()
2020-07-20 11:16:30,379:      (2): Dropout(p=0.3, inplace=False)
2020-07-20 11:16:30,379:      (3): Linear(in_features=1000, out_features=80, bias=True)
2020-07-20 11:16:30,379:    )
2020-07-20 11:16:30,379:  )
2020-07-20 11:16:30,379:  (so_t_b): BasicModule(
2020-07-20 11:16:30,379:    (layers): Sequential(
2020-07-20 11:16:30,379:      (0): Linear(in_features=1024, out_features=1000, bias=True)
2020-07-20 11:16:30,379:      (1): ReLU()
2020-07-20 11:16:30,380:      (2): Dropout(p=0.3, inplace=False)
2020-07-20 11:16:30,380:      (3): Linear(in_features=1000, out_features=190, bias=True)
2020-07-20 11:16:30,380:    )
2020-07-20 11:16:30,380:  )
2020-07-20 11:16:30,380:  (ov_t_a): BasicModule(
2020-07-20 11:16:30,380:    (layers): Sequential(
2020-07-20 11:16:30,380:      (0): Linear(in_features=1024, out_features=1000, bias=True)
2020-07-20 11:16:30,380:      (1): ReLU()
2020-07-20 11:16:30,380:      (2): Dropout(p=0.3, inplace=False)
2020-07-20 11:16:30,380:      (3): Linear(in_features=1000, out_features=190, bias=True)
2020-07-20 11:16:30,380:    )
2020-07-20 11:16:30,380:  )
2020-07-20 11:16:30,380:  (ov_t_b): BasicModule(
2020-07-20 11:16:30,380:    (layers): Sequential(
2020-07-20 11:16:30,380:      (0): Linear(in_features=1024, out_features=1000, bias=True)
2020-07-20 11:16:30,380:      (1): ReLU()
2020-07-20 11:16:30,380:      (2): Dropout(p=0.3, inplace=False)
2020-07-20 11:16:30,380:      (3): Linear(in_features=1000, out_features=165, bias=True)
2020-07-20 11:16:30,380:    )
2020-07-20 11:16:30,380:  )
2020-07-20 11:16:30,380:  (vs_t_a): BasicModule(
2020-07-20 11:16:30,380:    (layers): Sequential(
2020-07-20 11:16:30,380:      (0): Linear(in_features=1024, out_features=1000, bias=True)
2020-07-20 11:16:30,380:      (1): ReLU()
2020-07-20 11:16:30,380:      (2): Dropout(p=0.3, inplace=False)
2020-07-20 11:16:30,380:      (3): Linear(in_features=1000, out_features=165, bias=True)
2020-07-20 11:16:30,380:    )
2020-07-20 11:16:30,380:  )
2020-07-20 11:16:30,380:  (vs_t_b): BasicModule(
2020-07-20 11:16:30,380:    (layers): Sequential(
2020-07-20 11:16:30,380:      (0): Linear(in_features=1024, out_features=1000, bias=True)
2020-07-20 11:16:30,380:      (1): ReLU()
2020-07-20 11:16:30,380:      (2): Dropout(p=0.3, inplace=False)
2020-07-20 11:16:30,380:      (3): Linear(in_features=1000, out_features=80, bias=True)
2020-07-20 11:16:30,380:    )
2020-07-20 11:16:30,380:  )
2020-07-20 11:16:30,380:  (os_t_a): BasicModule(
2020-07-20 11:16:30,380:    (layers): Sequential(
2020-07-20 11:16:30,380:      (0): Linear(in_features=1024, out_features=1000, bias=True)
2020-07-20 11:16:30,380:      (1): ReLU()
2020-07-20 11:16:30,380:      (2): Dropout(p=0.3, inplace=False)
2020-07-20 11:16:30,380:      (3): Linear(in_features=1000, out_features=190, bias=True)
2020-07-20 11:16:30,380:    )
2020-07-20 11:16:30,380:  )
2020-07-20 11:16:30,380:  (os_t_b): BasicModule(
2020-07-20 11:16:30,380:    (layers): Sequential(
2020-07-20 11:16:30,380:      (0): Linear(in_features=1024, out_features=1000, bias=True)
2020-07-20 11:16:30,380:      (1): ReLU()
2020-07-20 11:16:30,380:      (2): Dropout(p=0.3, inplace=False)
2020-07-20 11:16:30,380:      (3): Linear(in_features=1000, out_features=80, bias=True)
2020-07-20 11:16:30,380:    )
2020-07-20 11:16:30,380:  )
2020-07-20 11:16:30,380:  (vo_t_a): BasicModule(
2020-07-20 11:16:30,380:    (layers): Sequential(
2020-07-20 11:16:30,380:      (0): Linear(in_features=1024, out_features=1000, bias=True)
2020-07-20 11:16:30,380:      (1): ReLU()
2020-07-20 11:16:30,380:      (2): Dropout(p=0.3, inplace=False)
2020-07-20 11:16:30,380:      (3): Linear(in_features=1000, out_features=165, bias=True)
2020-07-20 11:16:30,380:    )
2020-07-20 11:16:30,380:  )
2020-07-20 11:16:30,380:  (vo_t_b): BasicModule(
2020-07-20 11:16:30,380:    (layers): Sequential(
2020-07-20 11:16:30,380:      (0): Linear(in_features=1024, out_features=1000, bias=True)
2020-07-20 11:16:30,381:      (1): ReLU()
2020-07-20 11:16:30,381:      (2): Dropout(p=0.3, inplace=False)
2020-07-20 11:16:30,381:      (3): Linear(in_features=1000, out_features=190, bias=True)
2020-07-20 11:16:30,381:    )
2020-07-20 11:16:30,381:  )
2020-07-20 11:16:30,381:  (sv_t_a): BasicModule(
2020-07-20 11:16:30,381:    (layers): Sequential(
2020-07-20 11:16:30,381:      (0): Linear(in_features=1024, out_features=1000, bias=True)
2020-07-20 11:16:30,381:      (1): ReLU()
2020-07-20 11:16:30,381:      (2): Dropout(p=0.3, inplace=False)
2020-07-20 11:16:30,381:      (3): Linear(in_features=1000, out_features=80, bias=True)
2020-07-20 11:16:30,381:    )
2020-07-20 11:16:30,381:  )
2020-07-20 11:16:30,381:  (sv_t_b): BasicModule(
2020-07-20 11:16:30,381:    (layers): Sequential(
2020-07-20 11:16:30,381:      (0): Linear(in_features=1024, out_features=1000, bias=True)
2020-07-20 11:16:30,381:      (1): ReLU()
2020-07-20 11:16:30,381:      (2): Dropout(p=0.3, inplace=False)
2020-07-20 11:16:30,381:      (3): Linear(in_features=1000, out_features=165, bias=True)
2020-07-20 11:16:30,381:    )
2020-07-20 11:16:30,381:  )
2020-07-20 11:16:30,381:)
2020-07-20 11:16:30,381:2. get_dataset
2020-07-20 11:16:30,673:2.1 dataset.get
2020-07-20 11:16:30,673:Charades __init__
2020-07-20 11:16:30,673:2.1.1 label from csv
2020-07-20 11:16:30,767:2.1.2 video and label cache
2020-07-20 11:16:30,768:cachefile ./gsteg/cr_caches/Charades_train.pkl
…
